data.pth (torch, 8895 bytes, 6 tensors)

l1.weight f4 [8, 132]
000000 73 32 b9 3c 43 11 79 3e cd b8 c1 3e 41 69 40 3f
       0.022607064 0.24322991 0.37836304 0.75160605
000010 a7 c3 39 3e 91 59 72 3f b1 8c 90 3e 03 27 4f 3c
       0.18141042 0.9466792 0.2823234 0.012643578
000020 d9 3b 7c 3e 5f 98 54 bf 67 d0 e3 be aa 3f 7a 3f
       0.24632205 -0.83045 -0.44494936 0.97753394
000030 77 84 6c 3f bb e2 81 be d7 44 98 3e 84 e9 04 bd
       0.92389625 -0.25368294 0.2974002 -0.03244926
000040 36 01 93 3e ad 13 8b bd a0 6f 9b 3e a6 09 dd 3e
       0.2871186 -0.06790862 0.303586 0.43171424
000050 1b ff 13 3f 1f 48 05 3f 86 4b c6 3e aa 47 b3 be
       0.57811135 0.52063173 0.38729495 -0.35015613
000060 87 a0 66 3e de a3 ad bd 56 e7 3d bf b0 69 1d bf
       0.22522174 -0.08478521 -0.74181116 -0.6148939
000070 1d 52 a0 3f 64 10 91 bd 44 61 46 be 7e df b5 3e
       1.2525059 -0.070832044 -0.19373041 0.35522074
000080 f3 15 c6 3e 2e f5 84 be c1 d5 9f be a7 f5 07 3d
       0.3868862 -0.25968307 -0.3121777 0.033193257
000090 af f2 14 3f 16 74 91 bf 44 f4 ca bd 39 d6 61 3e
       0.58182806 -1.1363552 -0.09909871 0.22054376
0000a0 48 59 21 3e b5 65 84 3e 7c 9a 03 bf 5d c1 87 be
       0.15756714 0.25858846 -0.514076 -0.26514712
0000b0 22 df bb 3e 4e 65 b9 3f b0 53 73 be c2 90 31 3d
       0.36693674 1.4484041 -0.23762393 0.043350942
0000c0 b7 16 80 bd 72 ba 45 3f 74 67 ae 3d 99 f7 12 3f
       -0.062543325 0.7723762 0.08515826 0.57409054
0000d0 02 f3 08 be 36 5b 08 bf cd ee 71 be 8e 51 b8 3e
       -0.1337395 -0.53264177 -0.23626252 0.3599972
0000e0 e3 89 22 bf 67 79 d7 3e 59 9e 48 bd f3 73 28 bf
       -0.6349165 0.4208481 -0.048979137 -0.65801924
0000f0 3f 45 7d 3e 9d 15 1e bf a1 0e 1e bf b3 12 e5 be
       0.24733447 -0.6175173 -0.6174107 -0.4474083
000100 07 04 ff 3e 3b 9c 04 3f 5b c1 39 3f ce 5d 65 3e
       0.4980776 0.5180089 0.7256066 0.22399065
000110 22 79 bc be 2b 86 10 bf 90 8e d3 be ba a6 d4 bc
       -0.36811167 -0.56454724 -0.41319704 -0.025958408
000120 7e 0d 61 3e 30 e9 02 bf ac 61 0c 3f 58 15 17 be
       0.21977803 -0.51137066 0.54836535 -0.14754236
000130 a9 85 87 be 59 30 a1 bd 24 a3 d5 be b5 51 70 3f
       -0.26469162 -0.0787055 -0.4172603 0.93874675
000140 b8 66 a4 3e 05 09 28 3f cc 19 a7 3e 23 ce e4 3b
       0.32109618 0.6563876 0.3263687 0.006982581
000150 18 bd 26 3f 93 e8 aa 3e d3 ae 84 be 6d a1 3c 3e
       0.65132284 0.33380565 -0.2591463 0.18420954
000160 b8 60 96 3f 04 d0 02 3f 04 86 9c be 4b b4 2a 3f
       1.1748266 0.51098657 -0.30570996 0.66681355
000170 f4 0e ed 3e 1b 20 c4 be 2e 67 7a be 1a a7 28 3f
       0.4630047 -0.38305745 -0.24453422 0.65879977
000180 99 29 b0 be a6 08 02 3f 9a 1e 60 3e 33 1a ea bc
       -0.34406736 0.50794446 0.21886674 -0.028576946
000190 f5 21 41 bd fb af eb bd 22 83 c5 3e 25 f5 f8 be
       -0.047151525 -0.11508175 0.3857661 -0.4862453
0001a0 17 bc ba 3e 93 0a 94 3f 39 00 12 3f f2 95 2b 3f
       0.36471626 1.1565727 0.5703159 0.67025673
0001b0 64 b1 05 3f 6b 16 84 3e bc cb e2 bd df 21 de bd
       0.522238 0.25798354 -0.110740155 -0.10846304
0001c0 b0 10 79 bd 20 f2 20 3f 01 8f b7 be b3 27 7e 3e
       -0.06080693 0.62869453 -0.3585129 0.24819832
0001d0 21 63 0c 3f ce 4d 3d 3f 74 2b a9 3e 2e 48 ac 3e
       0.5483876 0.73946846 0.33040965 0.3364882
0001e0 92 8d 97 3e d1 91 29 bf 7e 8a 36 bd bb a2 cd bd
       0.29600197 -0.66238123 -0.04456567 -0.10040804
0001f0 64 f5 45 be 01 ae e4 bd f0 b8 34 3f 77 31 46 3f
       -0.1933189 -0.11166001 0.7059469 0.7741923
000200 36 18 6f 3e 12 9b 89 3e 86 2b 87 3f 76 60 89 3f
       0.2334908 0.26876122 1.0560157 1.0732563
000210 4f aa df 3e 1a 03 7b 3e 2a f6 bd 3e 18 ae f3 3e
       0.43684623 0.24512902 0.3710187 0.4759376
000220 e3 0d 06 3f 67 5b 50 bf 8b b8 1e bd a2 36 01 3f
       0.5236494 -0.8138947 -0.038750213 0.5047399
000230 a1 50 44 be 0d ec 2e 3f 5e 21 1a 3f ee bb 33 be
       -0.19171382 0.68328935 0.60207164 -0.17552158
000240 a0 68 b8 bf e5 b2 c1 3e ab 8d 42 be 15 81 65 3c
       -1.4406929 0.37831798 -0.18999355 0.014007826
000250 2f 33 f0 3d be 69 00 bf 72 ed f1 3d 83 7c 1a 3f
       0.117285125 -0.5016135 0.11812867 0.6034624
000260 8b de 84 3e b9 a2 88 3d 3a aa 12 3f b7 65 03 3f
       0.25951037 0.06671662 0.57290995 0.5132708
000270 65 35 d1 be cd 41 ec 3e cc 2b ca 3e 9c c1 a1 3e
       -0.4086105 0.46143952 0.3948654 0.31593025
000280 66 cb 8d 3f cf 8e d5 be f5 28 5e be 65 5a 56 3d
       1.1077697 -0.41710517 -0.21695311 0.0523323
000290 fe e0 2d 3f 51 9a a5 3e bc 0d eb 3e ab 2c 3e 3f
       0.67921436 0.32344297 0.45908916 0.7428691
0002a0 b7 b3 5f bf 46 16 a1 3f f9 fd c0 be bb 12 a9 be
       -0.873836 1.2584922 -0.37693766 -0.33022103
0002b0 ff 65 2c bd ea cd f9 3c 59 4a b6 be ab 43 31 bf
       -0.04208946 0.030493695 -0.35603598 -0.6924388
0002c0 54 63 af 3e 3b fe 9a 3f 40 5c 69 3e 24 be ee be
       0.3425547 1.2108835 0.22789097 -0.4662944
0002d0 00 34 a0 bd 6b 1b ce 3d 60 ee 09 3f 97 8f 93 3e
       -0.07822418 0.10063823 0.53879356 0.28820488
0002e0 3d 56 12 be 24 85 fc 3e f2 56 82 3e 06 cf 13 3f
       -0.1429071 0.49320328 0.2545696 0.5773777
0002f0 47 f3 cf 3e a7 10 63 3e 1f 02 69 3f f2 33 c4 3e
       0.40615293 0.22174321 0.9101886 0.3832088
000300 b2 83 1a 3d 07 65 cf 3e 51 da c6 3e 21 1d f2 3e
       0.03772325 0.40506765 0.38838437 0.4728785
000310 24 52 9d bd 20 2f 5c bf 0b 71 85 3d 69 bf 9a 3d
       -0.07681683 -0.8600941 0.06515702 0.0755604
000320 8f 76 e4 3e 02 3c 26 3f 2c cc 05 3f 20 05 2b 3f
       0.44621703 0.64935315 0.52264667 0.66804695
000330 b3 2a dc 3d 6f c7 af 3e d0 3c 35 3e a4 ac f2 3e
       0.10750332 0.34331843 0.1769898 0.4739734
000340 ce e5 03 3f 94 2c 12 be e5 b0 ea 3e a9 77 fa bc
       0.5152253 -0.14274818 0.45838085 -0.030574637
000350 67 89 84 3e f0 92 31 3e e9 80 1e bc f7 5d b8 be
       0.2588608 0.17341208 -0.009674289 -0.3600919
000360 99 50 8e 3d 09 4a 66 3e 7f ba 12 3f 6e cf d7 3d
       0.069489665 0.2248918 0.5731582 0.10537611
000370 dd df 74 3e 59 bb ce 3e 30 ff 30 3e 6e 67 24 bf
       0.23913522 0.4037731 0.17284846 -0.6422032
000380 d4 cf ba 3e b1 77 07 3f fc 34 49 bf 72 66 00 3d
       0.36486685 0.5291701 -0.7859647 0.0313477
000390 55 53 0c 3f b2 9a 05 3f 3c b1 1b 3f 19 4d ad be
       0.54814655 0.5218917 0.60817313 -0.33847883
0003a0 be 36 b8 3e 3e b7 c5 be 40 9b ae 3d 3e 56 0f 3f
       0.35979265 -0.38616365 0.08525705 0.5599097
0003b0 38 b4 5a 3e e4 d2 94 3f 30 e3 81 bc fc 1b 39 3f
       0.2135781 1.1626859 -0.015855402 0.72308326
0003c0 17 c4 dc 3e a3 39 41 bc 2c 01 ef bd 26 2f 2c 3f
       0.43118355 -0.011793527 -0.116701454 0.6725944
0003d0 78 32 e5 be 07 aa 8c 3e 90 1b 9e be 48 39 60 be
       -0.44765067 0.2747347 -0.30880404 -0.21896851
0003e0 77 07 6d bf 97 35 4e 3f 8b 9c f5 be b7 2f a3 3d
       -0.92589515 0.8055052 -0.47970995 0.07968085
0003f0 47 96 c7 3e 1a c1 c0 3e c0 51 e6 bd 28 a1 b0 bd
       0.3898184 0.37647325 -0.11246061 -0.08624488

l1.bias f4 [8]
000000 a7 da 53 3f be 28 52 3f e4 5d 18 3f de 63 64 3f
       0.8275551 0.8209342 0.59518266 0.89214885
000010 54 92 21 3f 1d 2c 6f 3f 0d be a5 3e de 69 fe 3e
       0.63113904 0.93426687 0.3237156 0.49690145

l2.weight f4 [8, 8]
000000 32 2b a2 bf 88 5d cd 3f f0 cb ab bd b5 13 cf 3f
       -1.2669432 1.6044168 -0.08388507 1.6177889
000010 55 2d bb 3f 9f ec 07 be 81 6c b1 be 4c f7 ce 3f
       1.4623209 -0.13273858 -0.34653094 1.6169219
000020 07 f0 3b 3f b9 af a4 3f 88 db 73 bd 27 48 5c 3f
       0.7341313 1.2866126 -0.059535533 0.86047596
000030 d1 ce ac bf 52 62 a9 3f 3a 44 98 bf 56 3d 78 bd
       -1.3500615 1.323313 -1.1895821 -0.06060537
000040 b0 22 51 3f 30 77 ad bf 34 0a a1 3f f1 2d 8c 3f
       0.81693554 -1.3551998 1.2581239 1.095152
000050 62 56 17 bf 51 85 34 3f 0a b8 49 3e 6b d3 c1 be
       -0.59116185 0.70515925 0.19699112 -0.37856612
000060 2d 4d 0b 3f 9d 23 0a 3f bf 62 a6 bc 87 38 40 bf
       0.54414636 0.5396059 -0.020310758 -0.75086254
000070 02 03 84 3f 95 37 06 40 01 28 70 be ab 81 a1 bf
       1.0313418 2.0971425 -0.2345276 -1.2617697
000080 21 7e 8e 3f 27 00 52 bf 48 45 31 bd 2c 90 a4 3e
       1.1132241 -0.8203148 -0.043278962 0.32141244
000090 1a 28 aa 3f 1e 13 2a 3f 9a a2 79 3e 5c e0 c2 be
       1.3293488 0.6643542 0.24378434 -0.38061798
0000a0 fc bb 4e 3f f8 31 52 be 07 ee c2 3f 00 9c ff 3e
       0.8075559 -0.20526874 1.522889 0.49923706
0000b0 b4 4f 9a be 04 ca cb be 05 13 b1 3f 10 db ca 3e
       -0.30138934 -0.39802563 1.3833929 0.39620256
0000c0 28 d3 3d 3f 82 81 e8 3f 74 88 60 3e 9a 89 2c 3e
       0.74150324 1.8164523 0.21927053 0.16849366
0000d0 03 b1 2b 3e 13 f4 4e bf 8e 8b 24 3e 3f 40 ba 3d
       0.16766743 -0.8084118 0.16068861 0.09094285
0000e0 3a c8 24 3f 9f 85 b8 3e b4 07 63 bf f3 61 7d 3f
       0.6436802 0.36039445 -0.8868363 0.98977584
0000f0 7e 5e c9 3f b8 4e 1a be 66 1f 48 3f 7c 01 c7 3f
       1.5731962 -0.15069091 0.7817291 1.5547328

l2.bias f4 [8]
000000 8a 8f 6d 3f 42 6c 6a 3f 56 6b 81 3e ac 93 59 3f
       0.9279715 0.9157144 0.25277203 0.84990954
000010 6e 5a e1 be 49 0c 37 3e 08 ba c5 3d c5 ca 7c be
       -0.44014305 0.1787578 0.09654623 -0.24686725

l3.weight f4 [15, 8]
000000 7b da 86 3e 36 b2 a1 bd 7d 6e 75 3e 52 3a 59 3d
       0.26338562 -0.07895319 0.23967929 0.053034134
000010 c9 eb c3 be f2 3b 48 be 09 19 8e bf c7 11 9c bd
       -0.38265827 -0.19554117 -1.110139 -0.07620578
000020 c1 ff 33 bf ac ee e2 bf 59 3f 34 bf 62 98 2e 3f
       -0.70312124 -1.7729087 -0.7040916 0.6820127
000030 f8 fc 05 3f ea ce 87 bf 23 55 d3 bf 7b e4 e6 3e
       0.52339125 -1.061002 -1.6510357 0.45096192
000040 98 6e 8a 3f 01 50 10 3e ba 7b a3 bf c2 ed 09 c0
       1.0815 0.14093019 -1.2772133 -2.1551366
000050 7e f7 e9 bf 13 26 0e c0 5d 58 92 3e 3a ba 03 3f
       -1.8278654 -2.2210739 0.2858304 0.51456034
000060 2e b6 06 3f be 26 1c c0 85 44 3e bf 50 c7 1c c0
       0.52621734 -2.4398646 -0.743233 -2.449665
000070 16 58 9a be 7f 05 f9 3e ae 82 e2 be de 7c 45 3f
       -0.3014533 0.48637006 -0.44240326 0.7714366
000080 06 fc de bf 43 a3 18 3f fe 4a 1c 3f e1 61 3e 3f
       -1.7420661 0.5962412 0.6105193 0.743681
000090 21 04 41 3d 41 74 40 bf b4 74 f4 bf ad 17 0f c0
       0.04712308 -0.7517739 -1.9098115 -2.23582
0000a0 eb e3 9c bf f2 ed cc bf 2e b4 2f 3f f2 66 82 bf
       -1.2257055 -1.6010115 0.6863431 -1.0187666
0000b0 b8 98 21 3f 8c b0 da 3d 57 b1 09 bf 99 9c 51 be
       0.63123655 0.10678205 -0.53786224 -0.20469894
0000c0 fc cb a6 bf d1 b9 bd bf d0 57 82 3e 89 c4 92 bf
       -1.3031001 -1.4822332 0.2545762 -1.1466228
0000d0 a7 5b 3e bf e0 05 35 3f b2 25 e3 3e 96 40 af bf
       -0.743586 0.7071209 0.44364697 -1.3691585
0000e0 40 bc e3 3d 00 ab 17 be c2 67 a4 bf e1 df 46 be
       0.1111989 -0.14811325 -1.2844164 -0.1942134
0000f0 e3 c4 16 be 16 de 55 bf 82 42 ac 3e 28 65 02 3f
       -0.14723544 -0.83542 0.3364449 0.509356
000100 6b 83 a3 bf 4a f7 7d be 36 01 24 3f b3 c9 82 be
       -1.277448 -0.24801365 0.6406435 -0.2554451
000110 79 6f 79 3c 97 95 55 3e e8 f4 ec be 17 59 04 c0
       0.015224331 0.20857845 -0.462806 -2.0679376
000120 22 c4 03 bf 5a de 29 c0 af 5c c5 bd 1f ec 98 3d
       -0.5147115 -2.6541963 -0.096368186 0.074669115
000130 e7 6b 99 be 60 0a 1e 3e 33 ce 60 3e a7 d9 c9 bb
       -0.29965135 0.15433645 0.21953659 -0.0061599794
000140 c6 cb cd bf 1a 82 26 bd c4 2a d0 3d ad 38 a7 be
       -1.6077812 -0.04065142 0.10164407 -0.32660428
000150 4c 08 a2 bc c9 81 a7 be 1e 62 13 3f a4 3f e2 be
       -0.019779347 -0.32716206 0.5757159 -0.4418918
000160 9f 78 01 3f 27 8b b7 bd 1f e7 31 c0 54 0a 95 3f
       0.5057468 -0.08962088 -2.7797315 1.1643777
000170 60 d3 c9 bc aa 0c 55 c0 3a e3 1f 3e 68 3b 30 bf
       -0.024636924 -3.328898 0.15614024 -0.68840647
000180 0b 39 55 3e 15 eb 62 3f 8c 1e c8 be cc d9 de bf
       0.20822541 0.88639957 -0.39085805 -1.7410216
000190 41 7e 26 c0 7e 0a aa 3e 4c 58 55 3f 88 a3 6a bf
       -2.601456 0.3321113 0.83337855 -0.9165578
0001a0 45 42 8b 3e f7 1a bc 3f 4b d5 f2 be 35 ac 5f 3f
       0.27198997 1.4695729 -0.47428355 0.8737214
0001b0 da 5f 0e c0 9d 0a b2 bf fa 7a 02 bf ab f7 25 c0
       -2.2246003 -1.3909489 -0.509689 -2.5932415
0001c0 b2 e2 f7 bf c0 fb 16 3f 67 c3 04 bf 20 13 1a 3f
       -1.9366057 0.5897789 -0.5186066 0.6018543
0001d0 8b 8e 28 3e 16 63 c5 bf 05 24 74 be a1 81 15 3d
       0.16460626 -1.5420864 -0.23841865 0.036500577

l3.bias f4 [15]
000000 81 00 be bc b8 f1 bc be cb 96 3b 3e 83 1e b5 3e
       -0.0231936 -0.36903167 0.18319242 0.3537484
000010 dd 95 db 3e 2e 1a 09 bf 26 b4 b0 3d 19 51 45 be
       0.42887774 -0.5355557 0.086281106 -0.19269218
000020 3f fb 8b be 76 7c e0 3d fb ed 43 bd eb 57 7c 3e
       -0.27340123 0.10961239 -0.047834378 0.24642913
000030 12 ca 97 3e 7a a1 34 3e 23 aa 02 3e
       0.29646355 0.17639723 0.12760215
